logs/b1/exported/policies/policy_lstm_1.pt (torch, 338193 bytes, 10 tensors)

hidden_state f4 [1, 1, 64]
000000 00 00 00 00 00 00 00 00 00 00 00 00 00 00 00 00
       0.0 0.0 0.0 0.0
000010 00 00 00 00 00 00 00 00 00 00 00 00 00 00 00 00
       0.0 0.0 0.0 0.0
000020 00 00 00 00 00 00 00 00 00 00 00 00 00 00 00 00
       0.0 0.0 0.0 0.0
000030 00 00 00 00 00 00 00 00 00 00 00 00 00 00 00 00
       0.0 0.0 0.0 0.0
000040 00 00 00 00 00 00 00 00 00 00 00 00 00 00 00 00
       0.0 0.0 0.0 0.0
000050 00 00 00 00 00 00 00 00 00 00 00 00 00 00 00 00
       0.0 0.0 0.0 0.0
000060 00 00 00 00 00 00 00 00 00 00 00 00 00 00 00 00
       0.0 0.0 0.0 0.0
000070 00 00 00 00 00 00 00 00 00 00 00 00 00 00 00 00
       0.0 0.0 0.0 0.0
000080 00 00 00 00 00 00 00 00 00 00 00 00 00 00 00 00
       0.0 0.0 0.0 0.0
000090 00 00 00 00 00 00 00 00 00 00 00 00 00 00 00 00
       0.0 0.0 0.0 0.0
0000a0 00 00 00 00 00 00 00 00 00 00 00 00 00 00 00 00
       0.0 0.0 0.0 0.0
0000b0 00 00 00 00 00 00 00 00 00 00 00 00 00 00 00 00
       0.0 0.0 0.0 0.0
0000c0 00 00 00 00 00 00 00 00 00 00 00 00 00 00 00 00
       0.0 0.0 0.0 0.0
0000d0 00 00 00 00 00 00 00 00 00 00 00 00 00 00 00 00
       0.0 0.0 0.0 0.0
0000e0 00 00 00 00 00 00 00 00 00 00 00 00 00 00 00 00
       0.0 0.0 0.0 0.0
0000f0 00 00 00 00 00 00 00 00 00 00 00 00 00 00 00 00
       0.0 0.0 0.0 0.0

cell_state f4 [1, 1, 64]
000000 00 00 00 00 00 00 00 00 00 00 00 00 00 00 00 00
       0.0 0.0 0.0 0.0
000010 00 00 00 00 00 00 00 00 00 00 00 00 00 00 00 00
       0.0 0.0 0.0 0.0
000020 00 00 00 00 00 00 00 00 00 00 00 00 00 00 00 00
       0.0 0.0 0.0 0.0
000030 00 00 00 00 00 00 00 00 00 00 00 00 00 00 00 00
       0.0 0.0 0.0 0.0
000040 00 00 00 00 00 00 00 00 00 00 00 00 00 00 00 00
       0.0 0.0 0.0 0.0
000050 00 00 00 00 00 00 00 00 00 00 00 00 00 00 00 00
       0.0 0.0 0.0 0.0
000060 00 00 00 00 00 00 00 00 00 00 00 00 00 00 00 00
       0.0 0.0 0.0 0.0
000070 00 00 00 00 00 00 00 00 00 00 00 00 00 00 00 00
       0.0 0.0 0.0 0.0
000080 00 00 00 00 00 00 00 00 00 00 00 00 00 00 00 00
       0.0 0.0 0.0 0.0
000090 00 00 00 00 00 00 00 00 00 00 00 00 00 00 00 00
       0.0 0.0 0.0 0.0
0000a0 00 00 00 00 00 00 00 00 00 00 00 00 00 00 00 00
       0.0 0.0 0.0 0.0
0000b0 00 00 00 00 00 00 00 00 00 00 00 00 00 00 00 00
       0.0 0.0 0.0 0.0
0000c0 00 00 00 00 00 00 00 00 00 00 00 00 00 00 00 00
       0.0 0.0 0.0 0.0
0000d0 00 00 00 00 00 00 00 00 00 00 00 00 00 00 00 00
       0.0 0.0 0.0 0.0
0000e0 00 00 00 00 00 00 00 00 00 00 00 00 00 00 00 00
       0.0 0.0 0.0 0.0
0000f0 00 00 00 00 00 00 00 00 00 00 00 00 00 00 00 00
       0.0 0.0 0.0 0.0

weight f4 [32, 64]
000000 89 ed ee be cd 0c e0 3c 25 70 a8 3e 48 96 13 3e
       -0.466656 0.027349854 0.3289806 0.14412796
000010 c4 c6 0e 3b 66 30 7f 3c 80 a5 05 3c 91 62 67 3e
       0.0021785954 0.015575504 0.008157134 0.22596194
000020 11 0e 28 3e f6 25 b0 bd bd 5b c4 3e 92 ce f4 3d
       0.16411616 -0.086009905 0.3835124 0.11953463
000030 43 31 ac 3d c8 71 5c 3e fd c5 cd 3d fe a8 16 3d
       0.084078334 0.21527779 0.10047529 0.036782257
000040 a0 66 5f bd ed ec 3e be c0 65 e8 bd 3f c6 98 bd
       -0.05454123 -0.18645068 -0.11347532 -0.074596874
000050 74 e8 5c 3f aa 78 81 3e f8 d8 8f 3c d1 b5 ef bb
       0.86292195 0.25287372 0.017559513 -0.0073153754
000060 ee fe a7 bd 84 18 db bc e2 d7 3d be 6b 94 49 3c
       -0.08202921 -0.026745088 -0.18539384 0.012303452
000070 8e 79 85 be 65 78 47 3d a8 cb b1 be 93 27 a0 3c
       -0.260693 0.0486988 -0.3472569 0.01955012
000080 40 e2 b0 bc 7b 56 95 be 9f bb 6d bd 20 ac 49 3e
       -0.02159226 -0.29167542 -0.058040258 0.19694567
000090 10 29 2c be 65 20 11 3e eb 55 11 3d e6 bd f5 bd
       -0.16812539 0.14172514 0.03548233 -0.11999111
0000a0 a7 39 bf bd ea 9e 2a 3e 14 91 f0 3d 99 2a 68 3e
       -0.09337168 0.16662183 0.117464215 0.226725
0000b0 e5 21 d5 3d 55 45 20 be 5f f1 e8 be cc 87 6e bf
       0.104068555 -0.15651448 -0.45496652 -0.9317596
0000c0 3c 6e 02 3d 00 04 83 bd 42 a0 0c 3e ca 00 76 bd
       0.03184341 -0.06397247 0.13733009 -0.060059346
0000d0 53 ee 3f bc 74 e6 9e 3d 2e 31 e0 3d 5e 7d 23 be
       -0.011714536 0.07758799 0.1094688 -0.15965793
0000e0 90 9d 0d 3e 8d a5 ce bd a6 44 7e bc d1 c0 0f bf
       0.13829637 -0.1009017 -0.015519297 -0.5615359
0000f0 19 14 a1 be a5 3f 6a 3d 47 55 1f 3c 69 41 ad 3d
       -0.31460646 0.057189602 0.009724922 0.084597416
000100 86 e0 22 3e 3c d2 58 3e 6f 48 88 be 9e 25 7e bd
       0.15905961 0.21173948 -0.26617762 -0.062047593
000110 4e c6 31 3d eb b4 4b 3c e0 0e 10 be b5 8a b6 be
       0.04340201 0.012433271 -0.14068174 -0.356527
000120 67 d9 8e 3d 54 93 c4 3e ff a9 c4 3d 3c d7 33 3d
       0.0697506 0.38393652 0.09602737 0.043906435
000130 3c b1 e7 bd 34 8f df 3c 95 b8 ad 3d 40 cf 27 3e
       -0.11313102 0.027289964 0.08482472 0.16387653
000140 06 8b 73 3e f6 24 03 3f 1b 31 e8 3c a8 4c b7 3e
       0.23783502 0.5122827 0.028343728 0.35800672
000150 a7 bb b8 bd f7 f9 12 3e 9f a0 dd 3d 58 98 71 be
       -0.09020167 0.14353167 0.10821652 -0.23593271
000160 dd 8c 10 3d 3a f7 8f 3e 42 78 20 3c 89 d5 c8 3a
       0.035290588 0.28118306 0.009794297 0.0015322427
000170 3b 3d c0 bd de f2 1d be 8d e0 24 3f 26 42 d5 3d
       -0.09386679 -0.15424678 0.6440514 0.104130074
000180 50 41 2f bf 07 25 07 be de 98 07 be 3f 56 a8 3e
       -0.68459034 -0.13197719 -0.13241908 0.328783
000190 07 ee 3c 3e 9c af 8f 3d 3c 38 0b bd 85 65 b8 bd
       0.18450175 0.07015917 -0.033989176 -0.09003738
0001a0 aa 46 58 be 15 c0 f3 bc cd 53 89 3e 36 49 6b be
       -0.21120706 -0.029754678 0.26821747 -0.22977147
0001b0 c6 d3 44 3d c4 1d fb 3d 42 ce 36 3e be c0 95 3f
       0.048053525 0.12261537 0.17852119 1.1699445
0001c0 ee 24 44 be ab a3 84 be fc c7 85 be 9b 9c 01 3d
       -0.19154713 -0.2590612 -0.26129138 0.03164349
0001d0 f8 b3 be 3e f0 d9 e6 3d 44 b0 b5 3e 6f 02 0b 3f
       0.3724668 0.11272037 0.35486042 0.5430059
0001e0 74 16 c1 3d 93 1e ba 3e 09 04 85 3c c2 38 b7 bd
       0.09428111 0.3635145 0.016237276 -0.089463726
0001f0 73 27 ab be 91 90 1e 3f f9 e0 7a be d0 e3 71 be
       -0.33428535 0.6193934 -0.24499883 -0.2362206
000200 47 cd 26 bf 90 69 f4 3d 17 dc d6 be 5e 46 11 3e
       -0.6515698 0.11934197 -0.4196479 0.14186999
000210 04 1f 48 bd a8 9b a5 be 2b 9e 9b 3c 51 65 65 3e
       -0.048857704 -0.3234532 0.018996319 0.2240193
000220 72 b8 ac be 11 f6 24 3e 85 d1 4a bf cf 5c ad bd
       -0.3373447 0.16109492 -0.7922595 -0.084649675
000230 e3 ab 5e 3e 0e 33 95 3e c2 11 3c 3e c6 b5 f4 3d
       0.21745257 0.29140514 0.18366149 0.11948733
000240 2b 2c c7 bd 89 02 a4 be 00 3c 17 3d ef 56 80 3e
       -0.09725221 -0.32033184 0.036922455 0.25066325
000250 4d 1e 13 bf 30 5b 85 be b6 c6 c2 3d 24 38 87 3d
       -0.5746811 -0.26046133 0.09510557 0.06602505
000260 b0 1c 9a 3e 0a 02 cb 3c b8 c3 90 3d 28 69 f8 3e
       0.30100012 0.024781246 0.070685804 0.48517728
000270 99 03 cf bd 34 a7 05 bf f2 a2 91 3f ed 04 51 3d
       -0.10108108 -0.52208257 1.1377852 0.05103009
000280 36 7c 7d be 76 b4 12 be 93 f7 1c bd 1d 94 1b be
       -0.24754414 -0.14326653 -0.038322043 -0.1519322
000290 4a 32 de 3c 0f 89 fc be 38 9a cc be a5 d4 32 bd
       0.027123589 -0.49323317 -0.3996141 -0.043659825
0002a0 e9 7f a9 be 80 be 50 bd 06 ce 8a 3d 1d 48 b5 3d
       -0.331054 -0.050962925 0.06777577 0.08851645
0002b0 b6 d5 a0 be d2 b6 20 be d6 fb 26 bf 99 66 19 3f
       -0.31413049 -0.1569474 -0.6522802 0.59922177
0002c0 23 f2 d5 be 98 c1 a9 be 5a a2 ab bd 7f cb 27 3e
       -0.41786298 -0.33155513 -0.083805755 0.16386221
0002d0 96 aa 89 3d 1c 35 fd 3d 09 ea e0 be e5 65 ad 3b
       0.0672199 0.123636454 -0.43928555 0.005291688
0002e0 a0 38 61 3d 2d f1 09 3f 8e 4a ea be 05 b6 66 3e
       0.054985642 0.5388363 -0.45760006 0.22530372
0002f0 f1 da 07 bf 64 b1 5c 3e 03 68 4d bd c5 bb aa 3d
       -0.53068453 0.21552044 -0.05014802 0.083365954
000300 4e 2a b9 3e 88 fe 53 be c9 6b e8 bb 8f 21 a4 3d
       0.36165088 -0.20702565 -0.007092927 0.08014213
000310 43 55 24 3e d0 c8 0b 3e 8f bc 20 3c 27 ff 3c 3e
       0.1604815 0.13650823 0.009810581 0.18456708
000320 5f 41 bd 3e 01 59 90 3d 4c c3 59 3e 12 5e 6b 3e
       0.36963937 0.07048226 0.21265906 0.22985104
000330 33 59 fd 3e 7d b1 7d 3d a6 83 6b be 40 2a d8 be
       0.49482116 0.061936844 -0.22999439 -0.42219734
000340 98 ff f5 3c eb 69 e6 3e 04 8e 87 bd c7 05 45 bb
       0.030029103 0.45002684 -0.06618884 -0.0030063258
000350 09 87 ca be 1e a2 e5 3e 38 c2 e9 bd 78 4c 49 be
       -0.3955615 0.44850248 -0.114139974 -0.19658077
000360 e4 25 e2 3d 09 b5 dd 3e c0 5a 57 3d 66 31 54 be
       0.11042383 0.4330218 0.05257678 -0.20721969
000370 8e c8 88 bd 76 08 22 3d e3 9a 04 bf 4f 8e 20 3e
       -0.06678878 0.03955885 -0.5179884 0.15679286
000380 bf 7c ae be db bc 4d 3f 56 c7 6d 3d 1e 60 80 3e
       -0.3407955 0.80366296 0.05805143 0.25073332
000390 1d 2e 00 bf c4 31 55 3e 2d 3f 8c 3e e3 81 db be
       -0.50070363 0.20819765 0.2739195 -0.42872533
0003a0 c7 06 3c 3e d8 b5 81 3e 8c b3 8e 3e 2e 38 58 3d
       0.1836196 0.25334048 0.27871358 0.052787952
0003b0 bb 6f 41 bd 2b aa b5 3e ee a0 2a 3f 9f 1b 2c bd
       -0.047225695 0.3548139 0.6665181 -0.04201853
0003c0 d5 e5 49 be c9 b5 ac bd a2 ba df 3e 26 1f 2b 3e
       -0.1971658 -0.0843311 0.43697077 0.16711101
0003d0 ae d9 43 bf 87 f3 bc 3e 00 bf f2 3e 2a 51 3a be
       -0.7650403 0.36904547 0.47411346 -0.18195024
0003e0 e3 ff cc bb 78 d9 b5 bd 20 cc 25 be 03 24 03 bf
       -0.00625609 -0.088793695 -0.16191149 -0.51226825
0003f0 5b 63 9f 3e 22 e9 21 bf 3e 12 d1 bd 3f 62 1b bd
       0.3113049 -0.6324636 -0.102085575 -0.03793549

bias f4 [32]
000000 c2 a7 de bd c5 93 4e bd 82 35 c4 3e 69 d8 b6 be
       -0.10871841 -0.050433893 0.38322073 -0.35711983
000010 90 55 29 be af 13 04 3f fc cc a0 be 20 0f 6b be
       -0.16536546 0.51592535 -0.3140639 -0.22954988
000020 51 67 3e 3e c7 d6 5a 3e 25 22 ba be 67 4b 87 3e
       0.185941 0.21370994 -0.36354175 0.26424715
000030 20 cf 4f 3e 15 d0 d2 bd 70 b4 6d be 97 6f 0b 3f
       0.20293856 -0.10293595 -0.23213363 0.5446715
000040 4d 8a 1e be 88 ec f0 3d 77 21 a7 bd ae 51 55 be
       -0.15482445 0.11763865 -0.0816068 -0.2083194
000050 42 90 de bd ff bc 3f be 37 43 73 3e b9 96 2a 3d
       -0.10867359 -0.1872444 0.23756109 0.041647647
000060 ed b2 b7 be fb 71 07 3e d7 45 66 be 04 db a7 be
       -0.35878697 0.13227074 -0.2248758 -0.32784283
000070 77 3d ad be af 93 e2 3e 28 7d b3 be 89 05 21 3f
       -0.33835956 0.442533 -0.35056424 0.6289907

weight f4 [12, 32]
000000 e7 ea 50 3e ac 6c 59 3e 55 ee 0f 3e 60 35 9c bd
       0.20402108 0.21232861 0.1405576 -0.07627368
000010 9b cf 75 3c 86 ff cf 3e 10 55 fb be 91 85 b4 3e
       0.01500311 0.40624636 -0.49088335 0.35258153
000020 36 1f 2f be 97 cb a9 3e 02 04 3e be 5e 78 cb be
       -0.1710175 0.3316314 -0.18556216 -0.3974027
000030 a2 d3 27 be 05 a9 0d 3d 49 bb 11 bd 16 a3 de 3c
       -0.16389325 0.034585018 -0.035579 0.027177375
000040 16 2c a3 3d 64 5a 27 be d6 88 df 3c cc e8 c9 be
       0.07967393 -0.16343075 0.027286928 -0.39435422
000050 17 87 cf be f4 00 c8 3e 0d bb 1d 3e 71 e0 f3 3e
       -0.40532753 0.39063227 0.15403385 0.47632173
000060 be 77 ca bc 50 4d e1 3e 2f a6 f2 3d 62 32 8b 3e
       -0.0247153 0.44004297 0.11848103 0.27186877
000070 d1 69 7a be 0d 47 f1 3c 36 b8 1c bd 6c fd cb be
       -0.24454428 0.029452825 -0.038261615 -0.39841783
000080 08 cd 52 3f 2c 0a d0 3e e3 aa 88 3e 78 71 39 3e
       0.823441 0.4063276 0.26692876 0.18109691
000090 c2 09 a3 bd bb 71 f0 bd 0b 1c 52 be b3 dd c3 bd
       -0.079608455 -0.11740442 -0.2051851 -0.0956377
0000a0 65 22 62 bd 16 70 d2 3b cf 8b ea 3e ab 9e e6 3e
       -0.055208582 0.006422053 0.4580979 0.4504293
0000b0 9b de fe 3d 4d aa 57 be 73 c8 cb be 80 c2 ad 3e
       0.124448024 -0.21061058 -0.39801368 0.33937454
0000c0 ef 4b 74 be 02 28 95 bd b9 e1 18 bf f7 0a d7 3d
       -0.23857091 -0.072830215 -0.59719425 0.10500138
0000d0 f2 49 eb 3d e7 4b 0c 3f 91 4c a7 3e 63 0f 85 bf
       0.11488713 0.5480332 0.32675603 -1.0395321
0000e0 38 04 8e bc dd 4c 6c 3e 20 bd e0 3e 39 63 86 be
       -0.017335996 0.23076196 0.4389429 -0.26247576
0000f0 82 99 28 3e cc 53 6f 3e 92 92 a7 bd da 72 c7 be
       0.16464809 0.2337181 -0.08182253 -0.38954812
000100 f0 51 16 3e 02 9c 22 bf 70 63 65 bf 80 62 4c 3f
       0.14679694 -0.635193 -0.89604855 0.798378
000110 22 10 e4 bd 52 49 5a bf 0c 11 f0 3e df 83 ac 3e
       -0.111358896 -0.8526813 0.46888006 0.3369436
000120 c1 2b c3 be e0 d8 43 3d e7 e7 54 3e 03 7f 43 bf
       -0.3811932 0.04781425 0.20791589 -0.7636568
000130 c3 56 2d bd 4e 68 9c be 29 bf 4c 3f 43 b6 64 bf
       -0.04231907 -0.30548328 0.7997919 -0.8934061
000140 4f fc d2 bc 04 cf cd bd 4d 51 21 bf 59 06 2a 3d
       -0.025755076 -0.10049251 -0.6301468 0.04150996
000150 18 ca 27 3f 9f 22 1b bf 02 35 2d 3e 3f 2e 45 bd
       0.65542746 -0.605997 0.16914752 -0.048139807
000160 48 05 3e be 54 81 36 3e 59 9d 8d be ec c4 b0 3f
       -0.18556702 0.17822772 -0.2765911 1.3810096
000170 a8 b1 61 3d 34 52 f7 bd d6 b2 7c bd 35 fb ac 3e
       0.055101067 -0.12076226 -0.06169399 0.33785406
000180 b5 3c 73 3e a9 a7 c9 be 58 4d 74 3d 56 74 c7 be
       0.23753627 -0.39385727 0.059644073 -0.38955945
000190 39 c0 57 be b4 55 3c bd fd 92 d2 bd 8c ed 2a 3e
       -0.21069421 -0.04598017 -0.10281942 0.1669218
0001a0 1f 08 b8 3c da c9 db be 80 e5 ae 3e 91 a9 ee bd
       0.02246481 -0.42927438 0.3415947 -0.11653436
0001b0 fa 90 96 3d b5 e8 d5 3d 1d b9 24 3e ad 16 16 be
       0.07351871 0.10444776 0.1608624 -0.14657088
0001c0 40 73 b3 3c ad c4 f3 bc a0 69 8e 3e fe b1 2e 3f
       0.021905541 -0.029756868 0.2781496 0.68240345
0001d0 2b ab 96 be bb 69 9f be 57 c5 81 be 02 f0 b4 be
       -0.29427466 -0.31135353 -0.2534587 -0.3533936
0001e0 d6 ec 60 be fc 15 5e be e9 dd 77 3e 09 37 3a 3e
       -0.21965346 -0.21688074 0.24205746 0.18185057
0001f0 67 e2 29 3e 27 34 0d 3f a4 da 00 be a0 51 05 bd
       0.16590272 0.55157703 -0.12583405 -0.032548547
000200 4c ff d2 bc e6 e6 4c 3c 11 c0 80 3e e9 cb b0 3e
       -0.0257565 0.012506222 0.25146535 0.3453057
000210 4d 8e 21 bf 73 1c 41 3e f2 c7 45 bf a9 69 9d be
       -0.6310776 0.18858509 -0.7725822 -0.30744675
000220 43 09 d0 3d 31 3f 62 3e 4d 3c 04 3e 74 49 91 3d
       0.101580165 0.22094418 0.12913628 0.07094088
000230 63 4b df be 70 04 f9 3d ec d4 87 3e 22 c4 a1 3e
       -0.43612203 0.121590495 0.26529634 0.3159495
000240 81 50 cd be 23 b7 45 3f d5 49 3f bf 7c 87 2b be
       -0.40100482 0.7723257 -0.74722034 -0.16750902
000250 86 c9 39 3f df a7 34 bd 91 68 0e 3e f2 51 d7 3e
       0.72573125 -0.044105407 0.13907076 0.42054707
000260 25 2b 9a bd 71 a9 b6 3e 3d 95 e0 bd 56 38 90 bc
       -0.075277604 0.3567615 -0.10965965 -0.017604988
000270 db fa 4a 3e e4 04 4a 3e dd 2a 0e 3f 78 12 37 3d
       0.19822256 0.19728428 0.55534154 0.044695348
000280 d4 24 cd bc 64 0e 22 be 1e 7e 1d bf 95 0a 8e 3e
       -0.025041975 -0.15825802 -0.61520565 0.27742448
000290 8a 07 96 3f 92 30 9c be e1 2e 1c 3f 20 31 64 3e
       1.1721051 -0.30505806 0.6100903 0.22284365
0002a0 13 be 07 3e fc b5 d1 be 7f 5d 5c 3f 70 89 8a 3e
       0.13256101 -0.40959156 0.86080164 0.27057981
0002b0 81 86 1e bf fe e0 76 3e f5 27 8b be 37 17 f2 be
       -0.61923987 0.24109265 -0.27178922 -0.47283337
0002c0 94 94 a5 be bd 45 de 3e ad 7e 03 3e 16 cd 02 3f
       -0.3233992 0.4341258 0.12841292 0.51094186
0002d0 17 fa f8 be 96 88 1a 3f 6e 65 c2 be 1e 59 20 bf
       -0.48628303 0.60364664 -0.3796801 -0.6263598
0002e0 ee b2 01 bf 30 52 14 bf 55 30 14 3e 9e 0e 29 3d
       -0.5066365 -0.5793791 0.14471562 0.041273706
0002f0 7e 30 85 bd 15 27 36 be ca bf c0 bd 64 35 8e be
       -0.0650339 -0.17788346 -0.09411581 -0.2777511
000300 fe ef 34 be 71 57 b0 3e d6 30 85 be 11 59 01 3e
       -0.17669675 0.34441712 -0.2601382 0.12631632
000310 35 de 48 bd 08 11 45 be 2f e8 88 3d 39 ae a8 be
       -0.04904004 -0.19244778 0.066849105 -0.3294542
000320 d4 01 db 3e 7b ce 8f be 0c f3 ed 3d a4 e5 f9 bd
       0.42774832 -0.2808722 0.11618623 -0.122020036
000330 8d 12 fb 3d 1f 4a 80 be 75 56 ac 3e 0b 33 ce 3e
       0.12259398 -0.2505655 0.3365971 0.40273318
000340 23 92 f0 bb 30 81 79 bc ab 33 8d 3d 9b 28 e8 be
       -0.0073416396 -0.015228555 0.068946205 -0.4534348
000350 4f 99 ce 3e 0f a8 c3 bd d3 a1 d9 bc 66 3f a2 3e
       0.4035134 -0.09553539 -0.026566422 0.31688994
000360 58 e9 8a 3e 67 e1 31 be 39 13 95 3e 7c 64 2b 3d
       0.27131152 -0.1737114 0.29116228 0.041843876
000370 b6 bc 34 3e 05 06 e4 bd 9f 11 52 3e 1e ad a3 be
       0.17650113 -0.11133961 0.20514534 -0.31968015
000380 e0 e1 35 3e ba 81 ab be 8f 85 4d be 37 22 f8 bd
       0.17761946 -0.3349741 -0.2007048 -0.12115901
000390 01 59 08 3e 9f 6f f5 3d 55 fb ff 3e c5 e6 08 bf
       0.13315202 0.11984181 0.4999644 -0.53477126
0003a0 87 43 f8 3e 77 56 ce 3e ab 49 98 be 77 2f 8e be
       0.4848902 0.40300342 -0.29743704 -0.27770588
0003b0 94 77 30 3f 3f 07 2c 3f 96 40 ae be 40 aa b0 3e
       0.6893246 0.67198557 -0.3403365 0.3450489
0003c0 ab 8b 0e bf 98 9c 64 bd 06 8c 20 be f3 62 77 be
       -0.55681866 -0.055813402 -0.15678415 -0.2415884
0003d0 c5 1a 96 be 08 e7 30 be 08 ba 28 3f 6c 3c 94 3e
       -0.293173 -0.17275631 0.6590886 0.28952348
0003e0 72 5d 2c 3f 69 91 2c be 74 f6 24 bf aa 9a 31 3e
       0.67330086 -0.16852345 -0.6443856 0.17344156
0003f0 cb 61 bb bd c2 21 a7 3c 1b e7 a0 3e f9 13 79 be
       -0.09149512 0.02040184 0.3142632 -0.24324025

bias f4 [12]
000000 f1 6e 59 bd 96 7e 1f be 67 7e c2 3c 3a 3c 40 3e
       -0.053084318 -0.15575632 0.023741914 0.18772975
000010 13 60 01 3e 20 ee 50 be 2b fb 19 bf 83 99 6b 3e
       0.12634306 -0.20403337 -0.60148877 0.23007779
000020 a9 fd af bd 92 02 00 3e ec 0f 3c 3d 9a 3e 9e bd
       -0.08593304 0.1250098 0.04591362 -0.07726784

weight_ih_l0 f4 [256, 235]
000000 22 84 c5 be 95 19 85 be 64 b6 e6 3e f2 7b dd be
       -0.38577372 -0.2599608 0.45061028 -0.43258625
000010 5e 61 97 3e 98 a1 d2 bc cb e2 8e be 0c 45 2b 3e
       0.29566473 -0.02571182 -0.27907404 0.16725558
000020 3e 7a 5f bf 95 0b 46 be ed 82 ef 3e 8e a4 8a bf
       -0.872959 -0.19340356 0.46779576 -1.0831468
000030 33 11 2f 3d eb 42 17 bf c8 d4 8c bf 32 ee f4 3d
       0.04274101 -0.59086484 -1.1002436 0.11959495
000040 eb b8 15 be 81 de 04 bf 67 fe f7 be cd f7 46 be
       -0.14621322 -0.51902014 -0.4843628 -0.19430466
000050 94 bb 9d bf 3a 50 5e 3e 8e 90 50 3f 12 5b 61 bf
       -1.2322869 0.21710292 0.8147057 -0.8802959
000060 0e 29 fd 3e 27 4b b0 3e 44 13 31 be 25 cf 9f be
       0.49445385 0.34432337 -0.17292506 -0.31212726
000070 96 21 8a be c8 39 c0 be 7d ec e8 bd 16 4c 9b bd
       -0.2697875 -0.37544084 -0.113732316 -0.075828716
000080 f9 61 28 bf 6e 44 81 bc b8 9a 59 be 19 f0 88 be
       -0.65774494 -0.0157797 -0.21250427 -0.2674568
000090 71 92 39 3d e6 03 a5 3e f4 28 19 be 17 ef b4 3d
       0.045305673 0.32229537 -0.14957029 0.08834665
0000a0 7f 70 42 3e 40 ec 0c 3e a6 bf f1 be 2d 9d c9 be
       0.18988226 0.13761997 -0.4721653 -0.39377728
0000b0 71 a3 89 3e 6e 34 b0 bd cc 1c 82 be ad c7 e2 bc
       0.26882508 -0.0860375 -0.25412595 -0.027683103
0000c0 e9 df 86 bd c0 32 da 3d 4d d1 1d 3e 1e cf 3b 3d
       -0.06585676 0.10654211 0.15411873 0.04585182
0000d0 3c 66 cb be 1f d0 65 3e 28 c6 d4 3d 8b ff 74 bd
       -0.39726436 0.22442673 0.10389358 -0.059814017
0000e0 8b 62 f0 bc 7f 27 20 3e 26 41 00 be ee c2 90 3c
       -0.029343864 0.15640067 -0.12524852 0.017671075
0000f0 26 9e 5c 3e bd 36 87 3e 29 c8 f1 3c d2 f9 93 3e
       0.21544704 0.2640895 0.02951439 0.28901535
000100 96 a9 a0 be ae 12 48 be cd 81 9e 3d 86 7c 2c 3e
       -0.31379384 -0.19538376 0.07739601 0.16844377
000110 ed d2 ee be 67 bb 2d be a9 ce 4a bd 95 35 b0 3e
       -0.466453 -0.1696602 -0.049513493 0.3441588
000120 e9 27 2f bc 00 67 a2 bd 03 cb 41 be 78 74 25 3e
       -0.010690668 -0.07929802 -0.18925099 0.1615771
000130 04 32 53 be a4 75 b3 be 43 03 5c 3e 9e 17 9d be
       -0.20624548 -0.3505069 0.21485619 -0.3068208
000140 f8 fc 95 3e ce 31 ca be de ba c1 3d 7a 66 9b 3e
       0.29294562 -0.39491123 0.0945947 0.3035162
000150 61 eb fd 3e 5c f8 95 3e 4a 14 6b 3d 5e 62 0c be
       0.49593642 0.29291046 0.057392396 -0.13709399
000160 f3 a8 ad 3e 6c 8e 22 3d e9 5a ad be 19 8a 3b be
       0.3391796 0.039686605 -0.3385842 -0.18314399
000170 fa c3 d3 3e aa 10 48 3f fe 85 91 be 10 62 7a 3d
       0.41360456 0.7815043 -0.2842254 0.061128676
000180 f1 0b b4 bc f8 51 bc be 61 1e c9 be 27 32 07 3b
       -0.02197835 -0.36781287 -0.3928099 0.0020629258
000190 03 7e 7d 3d da 27 a6 3d 9a 01 cb bd bd fc 35 bd
       0.061887752 0.0811307 -0.09912415 -0.044430483
0001a0 75 66 3c 3e 68 1c 9b 3d 19 30 ea be 51 62 21 3e
       0.1839846 0.075737774 -0.4573982 0.15760161
0001b0 ea 3b 83 be fd 50 26 bd f1 9d 0e bf cd 61 75 3e
       -0.25631648 -0.04060458 -0.5570975 0.2396309
0001c0 06 6f 6c be 2f 0b 63 be be b8 b0 3e 1d f4 30 3e
       -0.23089227 -0.22172235 0.34515947 0.17280622
0001d0 c5 2c 49 3e 3b 67 ac 3d 5a 3a 9f 3e 4f e5 cb be
       0.19645984 0.08418127 0.31099206 -0.39823386
0001e0 cd 60 22 bd 38 c5 57 be d4 26 c0 3d b5 72 42 bf
       -0.039643098 -0.21071327 0.09382406 -0.7595628
0001f0 27 b9 3f be 17 43 bc bd 07 c0 04 3d 31 97 79 bf
       -0.18722974 -0.09192484 0.032409694 -0.97496325
000200 ea 83 e3 bd 45 15 f2 3e 02 87 a7 bc e2 3b 00 3e
       -0.11109145 0.47281852 -0.020450119 0.12522843
000210 56 52 ba be 81 55 8e be c1 c6 95 bc c3 51 70 bc
       -0.36390942 -0.2779961 -0.01828325 -0.014667931
000220 46 92 8c 3e e9 65 ce be 19 38 28 be ce 56 81 bd
       0.27455348 -0.40312126 -0.1642765 -0.06315385
000230 12 36 14 3f bc 63 96 be 9e 15 bd be ab 8d 28 be
       0.57895005 -0.29372966 -0.36930555 -0.16460292
000240 de 7b 4e bd dd 06 77 be c9 d1 0a be 87 ea 8b be
       -0.050411098 -0.24123712 -0.13556589 -0.27327368
000250 6b e7 e0 bd 34 0c 98 3d 47 e1 1d 3c 2f 20 0e 3e
       -0.109816395 0.074242026 0.00963623 0.13879465
000260 4c 8e 5b 3e da 0f d2 be e4 52 af bc cc 9b 2c be
       0.21441 -0.4102772 -0.02140183 -0.16856307
000270 08 b5 77 bc 0e 83 8d 3e df c3 47 bf d2 5a 29 3e
       -0.015118845 0.2763905 -0.7803325 0.16538551
000280 98 3c ca be 01 27 34 3e 45 e4 f4 3d 4a d0 d8 bd
       -0.39499354 0.17593004 0.119576015 -0.10586603
000290 3e f0 a8 bd 02 29 11 3f cd 1d b6 bc d4 ff 22 be
       -0.082489476 0.567032 -0.022231007 -0.15917903
0002a0 45 7e 9c 3e 38 7f 35 bd 7e 67 13 bf f2 f8 36 3d
       0.30565086 -0.04431078 -0.5757979 0.044671007
0002b0 75 af 0f 3f c2 9a bf 3e fc 91 cf be d8 89 4c be
       0.561271 0.37422758 -0.40541065 -0.19974458
0002c0 25 94 9f bd 52 7b 14 3d 38 bd ba 3d 49 d2 3a 3e
       -0.07791928 0.03625042 0.09118122 0.1824428
0002d0 14 cb 66 3e ce 2b 8d bd 37 48 4a be 60 4c 17 be
       0.22538406 -0.06893121 -0.1975411 -0.14775229
0002e0 7e e5 86 be 4e 60 1b bd bd f5 ec 3c b4 b6 5b be
       -0.26346964 -0.03793364 0.02892577 -0.21456414
0002f0 90 df ad 3c 4f c7 1e 3d f9 c5 6c 3e 7b 8c 5a 3e
       0.021224767 0.038764294 0.23122396 0.21342652
000300 6f 2b 37 be e7 2b 36 be 9c b0 23 3f 4f 80 95 bb
       -0.17887662 -0.17790185 0.6394136 -0.0045624147
000310 4c 68 1b be 90 92 e1 3e 81 f4 ff 3d 52 84 92 bd
       -0.15176505 0.4405713 0.12497807 -0.07154144
000320 ff 59 81 3e 62 cc 79 be 63 90 43 3e cd 60 21 bd
       0.25263974 -0.24394372 0.19098048 -0.039398957
000330 55 18 18 3c 78 fa 46 bd b0 e8 ca 3d 6a d0 1b bd
       0.009283145 -0.04857871 0.09907663 -0.038040556
000340 a6 bb 38 3e f5 48 87 3e e2 b5 cc 3d f6 66 ba be
       0.18040332 0.2642285 0.09995629 -0.36406678
000350 5d d0 02 bb a6 37 cd 3e a1 a4 d7 3e 6b 9b d8 3e
       -0.001996062 0.4008152 0.4211779 0.42306075
000360 64 94 d3 bd bc 6d e4 3e aa d6 0f 3d 15 b5 0e be
       -0.10331038 0.4461497 0.03511683 -0.13936265
000370 ff 68 8f be b5 21 43 bd 90 d3 c5 bc 34 69 80 3e
       -0.28009793 -0.047639567 -0.024148732 0.25080264
000380 eb 9d b5 3e 2b 9d d8 3e e3 81 23 3d 7e e9 f1 3d
       0.35472044 0.4230741 0.03991879 0.11812113
000390 1c c5 0a bf 38 6b ae bd 06 ca a4 3d 4b db 32 3e
       -0.54207015 -0.08516544 0.080463454 0.17466466
0003a0 14 8f d7 bd 3c e1 a9 be 29 55 20 3e e8 4a d7 be
       -0.10525337 -0.33179653 0.15657486 -0.42049336
0003b0 7f 63 e4 be 5f 62 42 3f 4f b4 9f be 74 76 85 3f
       -0.4460716 0.7593135 -0.31192252 1.0426774
0003c0 49 4c 66 3f 1b ef 19 be cf e5 85 be e0 02 63 be
       0.8996015 -0.15032618 -0.26151893 -0.22169065
0003d0 9d 84 2c bd 7d b7 c6 be ff 12 98 3f 6f b8 67 3e
       -0.042118657 -0.38811865 1.1880797 0.2262895
0003e0 4b 98 e2 be 26 f6 c8 be ce 67 2d bf 86 f3 f0 3c
       -0.44256815 -0.39250296 -0.6773652 0.029412996
0003f0 6f 36 59 bf 79 e6 30 be da 52 95 be 50 77 b9 be
       -0.84848684 -0.17275418 -0.29164773 -0.3622384

weight_hh_l0 f4 [256, 64]
000000 0c df 11 bc cc 74 da be da b9 b4 3e e8 b2 ef 3e
       -0.008903276 -0.42667234 0.35298043 0.46816182
000010 45 89 5c be 99 7a 00 3f 84 2d cb 3e 4a 14 88 3e
       -0.21536739 0.5018707 0.39683163 0.2657798
000020 86 fe 22 3f b5 94 88 be bf f2 ff 3c 9f b1 75 bd
       0.6366962 -0.26675954 0.03124368 -0.059983846
000030 b2 7a 91 3d 85 3a 73 bd e6 78 78 bf 90 d7 94 be
       0.071034804 -0.05938198 -0.97059476 -0.2907071
000040 7a 87 0a bf 7d 92 d7 be eb 46 d2 3d 68 2b db be
       -0.5411297 -0.4210395 0.10267433 -0.42806554
000050 8d 7e d8 3d be af 11 3e 45 c4 f7 3e 60 59 d3 3e
       0.10571013 0.14227197 0.4839193 0.41279125
000060 b9 45 4d 3e 11 b6 de 3e 69 a4 96 be 17 66 02 bf
       0.20046128 0.4349828 -0.2942231 -0.50937027
000070 4b a4 24 be 6b 9b 16 3f 17 54 7e bf e5 3e e5 3c
       -0.16078298 0.588309 -0.9934706 0.027984092
000080 fe f0 75 be 48 ed 0e be ef b8 cd 3e 37 e5 1e 3f
       -0.24017712 -0.13957703 0.40180156 0.62068504
000090 23 4e 41 bd 5a a0 54 3e cd 32 c3 bb d1 0a 6f bf
       -0.047193658 0.20764294 -0.0059569837 -0.9337588
0000a0 e9 ce 6e be ca 3c 23 be 21 32 c7 be b5 59 d4 be
       -0.23321117 -0.15941158 -0.38905433 -0.4147469
0000b0 84 47 ab 3e 73 d7 02 bf a2 42 a6 3e fa d4 c0 be
       0.33453 -0.5111 0.32472712 -0.37662488
0000c0 64 71 60 3f f4 8d 58 3d 8e f1 c3 bc 98 cb f7 bd
       0.8767302 0.052869752 -0.023918893 -0.12099379
0000d0 fe 14 ab be ec f0 b3 3e 45 83 bc bf 4a 65 c3 3e
       -0.33414453 0.35144746 -1.472756 0.38163215
0000e0 fe 26 a4 be 6c 64 96 bc 17 11 4b 3f 5f 6e 7c be
       -0.32061 -0.018358432 0.7932295 -0.24651478
0000f0 96 a3 ff 3e c2 df 11 be 98 bc 09 bf f3 8c 74 be
       0.49929494 -0.14245513 -0.53803396 -0.23881893
000100 8e a5 67 3e 66 15 b1 bf 74 76 8b bd 4b d3 b4 3e
       0.22621748 -1.3834655 -0.068097025 0.35317454
000110 e8 70 2d 3f c5 b2 da 3e f4 ed 82 3e 97 52 cc be
       0.67750406 0.42714515 0.2557217 -0.3990676
000120 cc 74 21 bd b4 6a e9 3e 0e fb 3b 3e 9d c4 4c be
       -0.039418027 0.4558922 0.18357489 -0.19996877
000130 66 d2 1b bf 13 a3 31 bf f8 14 60 bf 9e dd ba 3e
       -0.6086792 -0.69389457 -0.87531996 0.36497205
000140 56 34 8d 3c ec 01 23 3f e3 50 d2 3e 69 56 a7 be
       0.01723687 0.6367481 0.41077337 -0.32683113
000150 52 e0 9e be e0 12 4d bf 9a bd 3e 3f f4 1e ee 3d
       -0.31030518 -0.80106926 0.7450806 0.116269976
000160 f2 16 db bd c0 a8 47 3e 1e 75 9a 3e 7e 49 ba 3d
       -0.10697736 0.19497967 0.30167478 0.09096049
000170 04 ed 92 be d2 27 22 3e 2c 6d a5 be 1a 2b c8 be
       -0.28696454 0.15835503 -0.32309854 -0.39095384
000180 bd 76 3a 3f 2d 91 86 3e 2b 8f b9 3e b6 86 03 bf
       0.7283743 0.26282635 0.3624204 -0.5137743
000190 6a ad 2e 3e 3a 79 78 bf 61 d5 3f 3d 68 e7 d6 be
       0.1705834 -0.9705998 0.046834353 -0.41973424
0001a0 35 aa f6 be 33 ee d6 be a2 6f b4 3e da 7f 83 be
       -0.48176733 -0.41978607 0.3524142 -0.2568348
0001b0 aa 45 13 bd e5 fc 2f 3e 39 d8 6a bf ec c1 93 be
       -0.03595511 0.17186315 -0.9173618 -0.28858888
0001c0 49 76 a7 3d ac c0 2b 3c 77 7e e1 bc 16 1d da 3e
       0.08176858 0.010482948 -0.027526123 0.42600316
0001d0 9e 7f fc 3e d1 34 2f bf f7 4a 27 3f 68 00 49 3e
       0.49316114 -0.68439966 0.6534876 0.19629061
0001e0 2a 3a 34 bf 4f e9 8a 3e 84 b8 2b 3f 42 0b 9e 3e
       -0.7040125 0.27131125 0.67078424 0.30867964
0001f0 f4 4c 6a 3e 47 e6 c5 3e 2d 83 eb bd 28 c9 37 3e
       0.22880918 0.3865225 -0.11499629 0.17947829
000200 49 7d eb 3d 6c 2f 65 be 8a 35 db be 89 a6 56 3e
       0.114985056 -0.22381371 -0.42814285 0.20961966
000210 e6 ab 33 bf 57 ff b9 be f8 ea 64 bf 8b c4 a2 3d
       -0.7018417 -0.3632762 -0.89421034 0.07947644
000220 47 a2 80 3f 38 ac 43 3d de e8 2d be 0b cd 5b 3e
       1.0049523 0.047771662 -0.16983363 0.21464936
000230 29 51 25 bf e3 84 c8 3e c1 52 0b bf d5 55 17 3e
       -0.64576966 0.39163885 -0.5442315 0.14778836
000240 cf 31 b7 3d ae ef 06 bf d4 02 b8 be 9a 02 fe be
       0.08945047 -0.5270947 -0.35939658 -0.4961136
000250 b6 92 9d 3e 32 55 cc bd 25 d0 e4 be 58 08 76 bf
       0.30775994 -0.09977187 -0.44690052 -0.9610648
000260 f7 d7 1e be 35 7d 10 3e 47 b1 94 bf 63 68 38 be
       -0.15512072 0.14110263 -1.1616601 -0.1800857
000270 29 55 90 bd b7 2b 12 be 3a bb fd 3e e8 53 dd bd
       -0.07047493 -0.14274488 0.49556905 -0.108070195
000280 93 ca 8c 3e 29 98 df 3e 62 12 b7 be ba a1 1a 3f
       0.27498302 0.43670776 -0.35756212 0.60403025
000290 9c a0 02 3d 32 ff 68 bf 82 a3 6c 3e e2 ce 9f be
       0.03189145 -0.910144 0.23109248 -0.31212527
0002a0 54 f1 bb bd f7 80 9a 3e c2 f6 c5 3e aa 60 ad 3e
       -0.09176889 0.30176517 0.38664824 0.3386281
0002b0 cc 2a 5c 3f c9 ad e8 3e d5 9c 4a 3f 40 e8 63 3f
       0.860028 0.45445088 0.79145557 0.8902626
0002c0 61 af bd be 65 81 0b 3f 20 a3 b8 be 6d 59 4b 3e
       -0.37047866 0.54494315 -0.36061954 0.19858332
0002d0 b6 c9 43 3f e0 b3 01 be 2e f6 ba bd 85 75 7d be
       0.7647966 -0.12666273 -0.09128986 -0.24751861
0002e0 45 a7 bb be 03 e3 31 bd 05 19 13 bd 2b ea 01 3f
       -0.36651054 -0.043429386 -0.035912532 0.50747937
0002f0 e0 9b 28 bf 40 17 9e be 62 74 6c bf 1b 7b b5 be
       -0.65862846 -0.30877113 -0.92365086 -0.35445485
000300 f8 ac 2f 3e 98 a1 c7 be 93 de 9d 3f 98 54 b9 be
       0.17155826 -0.38990474 1.2333549 -0.36197352
000310 f4 6b d2 3b a9 3e e2 bd b6 bc 59 bf 98 44 92 3d
       0.0064215604 -0.11047108 -0.85053575 0.071419895
000320 a1 4e 25 bf 61 bb b9 3e 40 56 08 bf 7f 1d 0e bf
       -0.64573103 0.3627577 -0.5325661 -0.5551376
000330 33 16 ad 3d c5 b4 4b 3f aa 17 ef 3d d6 a5 22 3d
       0.084515 0.7957271 0.116744354 0.039708935
000340 6a 18 9a 3e 4d f7 49 bf e5 fd 86 be 3f 69 80 bf
       0.3009675 -0.78892976 -0.2636558 -1.0032119
000350 65 43 67 3e ec 25 23 3d 7a c4 be 3e be 52 22 be
       0.22584303 0.039831087 0.37259275 -0.15851876
000360 94 56 cb 3d 6a b4 1b bf 34 7a 39 3f ff 99 df bd
       0.09928623 -0.60822165 0.7245209 -0.10918044
000370 5a 0a 40 bf 2c ea 27 3f b8 5f b5 3d a6 81 2e 3f
       -0.75015795 0.6559169 0.088561475 0.6816658
000380 5d c2 cb be 90 6f 10 bf 4b 74 bf be b6 cf e7 be
       -0.39796725 -0.5642023 -0.37393412 -0.45275658
000390 95 c2 11 3f 69 e7 55 be e9 63 1f be 82 2a 27 3f
       0.56937534 -0.20889057 -0.15565456 0.65299237
0003a0 5f a8 47 bf 2b 13 f9 be 3e db 29 bf 05 92 c0 bc
       -0.7799129 -0.48647436 -0.6635016 -0.023507128
0003b0 24 2e a5 3f c0 a2 ef 3e ab ac 8a 3e 02 7b 0a 3e
       1.2904706 0.46803856 0.2708486 0.13523486
0003c0 eb af 71 3e 24 4e 84 be f7 27 16 3f 41 81 8d be
       0.23602264 -0.25840867 0.5865473 -0.27637675
0003d0 23 9c b0 3e f5 19 78 bf 19 36 f4 3b e9 c1 40 3d
       0.34494123 -0.9691461 0.007452738 0.047059927
0003e0 73 83 32 bf 96 4e 9c 3e df f6 ba be 03 73 49 3f
       -0.69731826 0.30528706 -0.36516473 0.7869112
0003f0 75 b0 53 bf 9a b7 e7 be 61 00 e5 bc b1 ee 04 3e
       -0.8269113 -0.45257264 -0.027954282 0.12981679

bias_ih_l0 f4 [256]
000000 54 a7 80 3f 93 43 65 3d f2 1b f8 3e e5 06 8a 3d
       1.0051064 0.055972647 0.4845882 0.06739596
000010 eb a4 16 be 5b b8 02 3f fc 32 81 3e 1f b4 ca 3e
       -0.14711349 0.51062554 0.2523421 0.39590546
000020 9b 87 02 3f 3f 26 d7 3e 2e 4e 54 3d f6 bb f7 3d
       0.5098817 0.42021367 0.05183237 0.120963976
000030 a3 03 20 3e 73 a6 a4 3e 9a d2 9a 3e 2b 4d 88 bd
       0.15626387 0.3215824 0.302388 -0.066553436
000040 4b 9b 0d be de ef c1 3e 5a e2 10 3f aa 1d 20 3d
       -0.13828771 0.37878317 0.56595385 0.03909079
000050 f1 97 24 3f ac f8 10 3e 6e 77 0c 3f 42 bd 8b 3e
       0.64294344 0.14157361 0.54869735 0.2729283
000060 e9 26 95 3e 1a 84 09 3f 0f 71 9b 3e 45 e5 36 3f
       0.2913125 0.53717196 0.30359694 0.7144359
000070 2b 0a 37 be 40 b8 b0 3e a2 6e 0f 3e 67 fc d1 3e
       -0.17874973 0.34515572 0.14007047 0.4101288
000080 7a 5f 5b 3e 89 77 ee 3e 05 61 a0 3e e2 10 9d 3e
       0.2142314 0.46575573 0.3132402 0.30676943
000090 de 70 15 be f1 87 5f bd 0c 26 be 3d bd 93 bd 3e
       -0.14593837 -0.054573003 0.092846006 0.37026778
0000a0 63 a5 06 3f 0c e2 9d 3e 46 38 95 3e 2b 75 ab 3e
       0.5259611 0.30836523 0.29144496 0.3348783
0000b0 5f d6 5c 3e 49 eb 04 3f 5a a5 fd 3e 17 97 bf 3e
       0.21566151 0.51921517 0.49540216 0.3741996
0000c0 8a 64 b6 3e 46 c1 b3 3d 1f 90 22 3f c4 ad 4c 3e
       0.3562358 0.08777098 0.6350116 0.19988161
0000d0 ff 5a 14 3f e1 07 9c 3e 34 cd aa 3e c7 fb aa 3e
       0.5795135 0.3047476 0.33359683 0.33395216
0000e0 63 b9 b0 bd d8 de 1e 3e c2 84 fb 3e a2 af d5 3e
       -0.0862911 0.15514696 0.49124724 0.4173556
0000f0 09 7b 01 3f 65 9b 03 3e 30 f9 25 3f 63 09 2d 3e
       0.5057836 0.12852247 0.64833355 0.16898112
000100 ab 4f 46 be fc 85 b7 be 08 fa a7 be da a8 ea be
       -0.19366328 -0.3584441 -0.32807946 -0.4583195
000110 4c bf 47 3b e8 bf a0 be ac 91 7b bd 41 ec 34 3d
       0.0030479012 -0.31396413 -0.06141822 0.04417062
000120 f1 fa 5d be a8 d6 56 be 11 d8 e2 be 76 ac b6 be
       -0.21677758 -0.20980322 -0.4430547 -0.35678452
000130 a3 b1 cf be 2e 91 42 bf 83 ff 61 be e8 c4 b5 be
       -0.40565214 -0.76002777 -0.22070126 -0.3550179
000140 ae 99 42 3e f3 6f 24 be c3 84 1c be 55 43 8d be
       0.19003937 -0.1605833 -0.1528502 -0.27590433
000150 36 74 1f 3d 72 b8 45 3e 36 3b 42 3b 45 6f b4 be
       0.038929187 0.19308642 0.0029637343 -0.35241142
000160 5a dc df 3b d5 40 40 be 94 c7 1e 3d b8 99 ec bd
       0.006831688 -0.18774731 0.03876455 -0.11552757
000170 ff b7 b9 3b 4b a7 45 be 0a b0 2f be 88 dc 4e 3e
       0.005667686 -0.19302098 -0.17156997 0.20201313
000180 ae 0d 27 be 4f 3d dd bc a8 64 07 bd 0e cd c4 3e
       -0.16313812 -0.027006773 -0.033054978 0.38437694
000190 d0 12 00 bf 8a 46 8f bd 5e 79 58 3e e9 81 db be
       -0.50028706 -0.06995876 0.21140048 -0.4287255
0001a0 75 3c 49 bd 03 5d 04 bf 47 11 bf bd 2f 59 07 bb
       -0.049129922 -0.51704425 -0.09329467 -0.0020652523
0001b0 3c d9 48 3d b4 7d b2 3e 36 c9 41 bf c1 6e 6d 3e
       0.049035296 0.3486153 -0.7569765 0.2318678
0001c0 54 b1 cc 3d d3 60 f9 bd f4 5c dc bd ad e7 ad be
       0.0999476 -0.12176671 -0.10759917 -0.33965817
0001d0 05 95 c9 be fa 6f 22 bd ee e8 89 3e c5 fd af bd
       -0.39371505 -0.03965757 0.26935524 -0.085933246
0001e0 49 a9 00 bd 05 47 c9 be 28 c1 c4 bb 16 09 4d be
       -0.031411443 -0.39311996 -0.0060044713 -0.20022997
0001f0 ab f4 a8 be f7 5c 98 be 49 cb 61 be 7b 25 70 be
       -0.32999167 -0.29758427 -0.22050203 -0.23451798
000200 c1 fd 7c 3c 9f 78 b0 3e db e8 27 be f7 b4 46 3d
       0.015441359 0.34467027 -0.16397421 0.048512425
000210 7f 55 8d bc 8c e2 3f 3e 9e 15 cc be b6 5e da 3d
       -0.017252682 0.18738765 -0.39860243 0.10662596
000220 2a 51 24 bb 62 dd 3a bd 23 16 2d be 07 af 19 be
       -0.0025072792 -0.045621283 -0.16902976 -0.15008174
000230 1c da 44 be 68 74 d1 3d c7 50 f3 3d 35 dc d1 3c
       -0.19223827 0.10227281 0.118806414 0.025617698
000240 73 75 03 be 59 5c 0f be 9f a2 09 3e e6 4c a3 bc
       -0.12837772 -0.14000072 0.13440941 -0.019934129
000250 fd 09 9d bc 38 bc bf bd 79 af 3a be cc 0f 27 bd
       -0.019169802 -0.09362072 -0.18231 -0.04078655
000260 17 c4 bb 3c 21 e9 fb bd d1 52 da bd f2 a5 ff bd
       0.022920651 -0.12300325 -0.10660327 -0.124828234
000270 db de 9f 3d 99 b0 dd bd d9 1d eb 3c ef 74 0b 3e
       0.07806178 -0.10824699 0.028700756 0.13618825
000280 56 76 c4 3b be e3 2e bf c2 c8 36 3e 39 12 02 3f
       0.005995552 -0.68316257 0.1785002 0.50809056
000290 23 4b 8f 3e f6 7f 64 bd f3 94 65 3e bd df 3a 3e
       0.27987012 -0.055786096 0.22420101 0.18249412
0002a0 bf 36 a5 be 5d 32 e2 be 81 44 7a be b3 b5 08 bd
       -0.3226833 -0.4417905 -0.24440195 -0.033376407
0002b0 ea 94 a0 bd 5a 5e 0e bf e9 9b 20 bd f6 99 39 bf
       -0.07840903 -0.5561272 -0.039211188 -0.7250055
0002c0 0a 4f 70 3e 8d cb 69 3d 70 f0 42 be ce 3f d6 be
       0.23467651 0.057078887 -0.19037032 -0.41845554
0002d0 22 53 db bd f3 c7 31 3c 91 0e cd be 53 26 0f 3e
       -0.10709216 0.010850894 -0.40050176 0.13979463
0002e0 9c 4d 5a 3d 27 21 cd 3e f4 d5 75 3e 55 49 a1 bc
       0.05329667 0.40064356 0.24007398 -0.019688288
0002f0 83 f8 3c bd f6 4d 7e 3e 69 c8 51 3e 24 b5 4e 3e
       -0.046135437 0.24834427 0.20486607 0.20186287
000300 7c 31 ac 3e 24 84 5c 3e 1c c8 3f 3e 48 a7 c6 3e
       0.33631504 0.21534783 0.1872868 0.387995
000310 09 d6 91 3d bb 1b 97 3c bb 22 19 3e 27 c4 3c 3e
       0.07120902 0.01844584 0.14954655 0.18434201
000320 8f a5 ab 3e 4e 7c 88 be 0b 02 db 3d a8 d2 69 3e
       0.3352475 -0.26657337 0.10693749 0.22834265
000330 78 91 cf bd 47 82 1f 3f cd 1f ca 3e c5 6f f6 3e
       -0.10135168 0.6230816 0.39477387 0.48132148
000340 ab 67 69 3c 88 e4 a6 3e 96 cb 9a 3e 21 46 66 3e
       0.014245908 0.3259623 0.3023345 0.2248769
000350 e0 03 26 3e 3f dd 96 3c 5f ac 06 3f 47 a9 ab bd
       0.16212416 0.018416045 0.5260677 -0.083818965
000360 8e b2 dc 3e cb 3b 3d 3d 87 fc 9d 3e 8e a8 07 3f
       0.43104976 0.0461996 0.30856726 0.5299157
000370 66 3d cb bc c2 41 bd 3d 32 b5 30 3e e9 67 9e 3b
       -0.02480955 0.09241058 0.1725662 0.0048341644
000380 df 57 f2 3e 78 1b 87 3e d7 52 3b 3e 92 17 c6 bd
       0.47332665 0.26388144 0.1829332 -0.096724644
000390 1a 5f ed bd 85 c5 ad 3e 1d 65 1c 3e af 82 29 3d
       -0.11590405 0.33939758 0.15272947 0.041384395
0003a0 cb 9f 68 3e 59 7a b4 3e ae 27 d7 3e c9 3a 67 3e
       0.22717206 0.35249594 0.4202246 0.22581019
0003b0 5a cd 46 be 6a 5c c6 3e a8 a5 53 3f b0 da 10 be
       -0.19414273 0.3874238 0.82674646 -0.14145923
0003c0 df e2 de 3e 7e 7b ce 3e 40 87 53 3e 17 e4 89 3e
       0.43532464 0.40328592 0.20657063 0.2693183
0003d0 4f 9b d3 bd 72 30 19 3e 58 3c 16 3f 1b 38 f1 bd
       -0.10332357 0.14959887 0.5868583 -0.117782794
0003e0 0e 24 8c be f0 7b 8e 3e 6b 63 95 3d 51 3e a3 3e
       -0.27371258 0.27828932 0.07294353 0.3188348
0003f0 48 2f 29 3f 13 39 5d 3e d3 6b cd 3e 16 c7 4e 3e
       0.6608777 0.21603803 0.40121326 0.20193133

bias_hh_l0 f4 [256]
000000 ab db 6d 3f ea a2 ac 3c 74 06 d4 3e 7b 39 12 3d
       0.9291331 0.021073777 0.41411173 0.03569935
000010 e4 07 7a 3c 01 d0 ba 3e 66 a8 83 3e bd 07 be 3e
       0.01526067 0.3648682 0.25714415 0.3711528
000020 26 2e 0d 3f dd e5 a4 3e ff 04 99 3e 1c f2 a1 3e
       0.5514854 0.32206622 0.29886624 0.31630027
000030 1b 36 24 3e 21 5c 9a 3e 74 62 ac 3e 46 ea b7 bd
       0.16036265 0.30148414 0.33668864 -0.08980231
000040 94 39 d8 bd bd d0 e3 3e cb f4 0e 3f 95 9c 03 3d
       -0.10557857 0.44495192 0.55842274 0.03213175
000050 45 1a 1a 3f 4d c1 b1 3d 40 29 23 3f 64 c5 92 3e
       0.60196334 0.08679447 0.6373482 0.28666222
000060 88 8f a3 3e a8 c8 21 3f a7 da d2 3e e0 79 3c 3f
       0.31945443 0.631968 0.41182443 0.73623466
000070 36 d4 02 bc 81 70 08 3f 17 d9 80 3e 7a ba aa 3e
       -0.007985165 0.5329667 0.25165626 0.33345395
000080 58 5b b9 3e 0c cc e2 3e 58 3d b3 3e 09 d2 bb 3e
       0.36202502 0.442963 0.3500774 0.36683682
000090 47 da 30 be 46 6a e5 bc f9 53 06 3e 18 da 8a 3e
       -0.17270766 -0.028004777 0.1311797 0.27119517
0000a0 69 4d 16 3f 02 0d d2 3e e8 c2 c6 3e dc e0 b9 3e
       0.5871187 0.4102555 0.38820577 0.36304367
0000b0 c4 4e 71 3e 1d a2 0e 3f 1b c5 ff 3e 7b 03 ca 3e
       0.23565203 0.55716115 0.49955067 0.3945578
0000c0 76 22 d8 3e bc 33 8c 3e 7d 42 32 3f 6a 66 96 3e
       0.42213792 0.2738322 0.69632703 0.2937501
0000d0 7e 59 27 3f af 7e 57 3e d8 40 83 3e 2a 1a a3 3e
       0.6537093 0.2104442 0.2563541 0.318559
0000e0 b5 9d 1f ba 00 e9 24 3e 06 c7 d6 3e 06 d8 84 3e
       -0.0006088869 0.16104507 0.41948718 0.25946063
0000f0 28 9e e7 3e bf a4 d9 3d be 49 4f 3f 73 cb 9e 3e
       0.4523785 0.10627126 0.80971897 0.31014594
000100 91 31 42 be 3c f4 b6 be 48 7e 83 be 8c d8 b7 be
       -0.1896422 -0.3573321 -0.25682282 -0.359074
000110 08 33 02 be 0b 06 94 be 49 3e 31 3d 78 88 fe bc
       -0.1271478 -0.2891086 0.04327229 -0.031070933
000120 59 d8 c2 be 37 6f be bd e3 f0 92 be 9a 5a 79 be
       -0.38055685 -0.09298556 -0.28699407 -0.24350968
000130 38 e4 f7 be aa db 5a bf e0 8a 6a be 10 84 f0 be
       -0.48416305 -0.8549143 -0.22904539 -0.46975756
000140 6a 86 c3 3e 01 e8 7f be d5 a3 5e bd 89 a8 2e be
       0.38188487 -0.24990846 -0.05435546 -0.17056479
000150 38 68 eb 3d 71 3b 6a 3e 6e 08 29 be 22 3e cd be
       0.114944875 0.22874238 -0.16507122 -0.40086466
000160 ec 3a e9 bd 7d c5 72 be 1d 3f 9e bd 47 dd 22 3a
       -0.113881916 -0.23708148 -0.07726882 0.00062127825
000170 f5 e0 5b 3d db be de bb 7b 42 81 be 46 a5 32 3e
       0.053681333 -0.006797654 -0.25246033 0.1744586
000180 9c 1b 89 be 8e 93 25 be c5 41 2c 3e 7c e0 73 3e
       -0.26778877 -0.16169569 0.16821964 0.23816103
000190 4c 84 01 bf 8c 5d 21 be 21 62 00 3e f0 83 11 bf
       -0.50592494 -0.15758342 0.12537433 -0.56841946
0001a0 0f 20 8c be 39 c2 2c bf 19 c0 b4 3d 36 16 42 be
       -0.2736821 -0.6748386 0.08825702 -0.18953785
0001b0 4a ab 93 3d 5b c2 fc 3e 5c 72 4d bf 17 e8 7f 3e
       0.07210405 0.4936703 -0.80252624 0.24990879
0001c0 78 d0 4c 3e 2b dc 6c 3d 6d d5 32 3d ec 2a 6e be
       0.200014 0.057827156 0.04366057 -0.23258561
0001d0 3e f0 77 be 14 87 02 3d d1 39 b2 3e 5a 0f 27 be
       -0.24212739 0.0318671 0.34809735 -0.1631445
0001e0 81 ab ac 3b 4c 21 6e be 94 e2 6f 3e 11 3b 4f be
       0.0052694683 -0.23254889 0.23426276 -0.20237376
0001f0 ef a6 b2 be 89 ac 95 be e3 f2 4e be 01 a8 a7 be
       -0.34892985 -0.29233196 -0.20209841 -0.32745364
000200 70 8d 83 3c 06 5a b5 3e c8 09 91 bc 7d c0 0d 3e
       0.016058654 0.35420245 -0.01770486 0.1384296
000210 7c ad 77 bd a3 96 a7 3e 99 23 86 be 64 c0 c0 3d
       -0.060468182 0.32732114 -0.26199034 0.094116956
000220 79 a8 98 bd 22 a7 17 be a0 fe dc bc b9 1a 8c bd
       -0.074540086 -0.1480985 -0.026976883 -0.068410344
000230 36 5d d4 be 2a 67 d0 3d 94 5c f2 bd 48 dc 84 bd
       -0.41477364 0.10175927 -0.11834064 -0.06487328
000240 dc ac 86 be 49 73 68 be 05 d6 e6 3d e5 ee 1b 3d
       -0.26303756 -0.22700228 0.1127129 0.038069624
000250 eb 32 b0 3d e7 d7 93 bd 68 a1 1a be 40 60 13 3e
       0.08603462 -0.072189145 -0.15100634 0.14392185
000260 b4 a3 52 bd b1 71 4f bd 39 2b 1b bd 17 b7 60 bd
       -0.05142565 -0.050645534 -0.037883017 -0.054862108
000270 50 51 89 bd f4 02 23 3d 25 e9 8e bd 9c 01 21 3e
       -0.06704962 0.03979774 -0.069780625 0.1572327
000280 8f 63 c5 b9 71 ac 40 bf 63 03 0d bd 73 58 de 3e
       -0.00037648945 -0.75263125 -0.034427058 0.43426856
000290 4e 5c a9 3e ba e3 2e be 56 9e 76 3c be 4f ab 3d
       0.33078235 -0.17079058 0.015052399 0.08364819
0002a0 79 7e 37 be 22 4f d0 be 8c 76 81 be fb ba 39 bd
       -0.17919339 -0.40685374 -0.25285757 -0.045344334
0002b0 b2 34 0a be 4d 24 23 bf 65 27 0f bc 52 f0 33 bf
       -0.13496664 -0.63727266 -0.00873742 -0.70288575
0002c0 69 2e 9c 3b 44 b8 1a 3e 3d af 7e bc 74 21 fe be
       0.0047662747 0.15109354 -0.01554471 -0.49634898
0002d0 e8 f9 fc bd a8 55 ce bd b5 b1 d3 be 95 65 7d bd
       -0.12352353 -0.100749314 -0.41346517 -0.061864454
0002e0 6f 4e 48 3e 0d 74 64 3e 28 af f6 3d 0c 45 b1 3d
       0.1956117 0.22309895 0.12045127 0.08655748
0002f0 ec 19 b1 3c dd fc 0b 3e 8c 80 1a 3e 42 f4 6b 3e
       0.021618806 0.13670678 0.15088099 0.23042396
000300 7b 28 e0 3e 36 c0 d7 3c d9 5f 86 3e b6 dc 83 3e
       0.43780884 0.02633677 0.26245 0.25754327
000310 a0 e6 34 3e 78 53 00 3b 1b a2 f9 bc 90 56 99 3e
       0.17666101 0.0019581001 -0.030472806 0.29948854
000320 bb f9 8c 3e 9a 89 7c be 4f 5a ec 3d de 70 b3 3e
       0.2753428 -0.24661866 0.115406625 0.35047048
000330 3b 15 69 be c2 32 f7 3e a2 85 bb 3e 6f bf 0d 3f
       -0.22762005 0.48280913 0.3662539 0.5537023
000340 78 b8 26 3e 6e 2e 7f 3e da 74 53 3e 32 cb 0b 3e
       0.16281307 0.24920055 0.20650044 0.13651732
000350 24 d6 87 3e 89 cd 84 3d 1d d4 f8 3e bd 10 7c bd
       0.26530564 0.06484515 0.4859933 -0.0615394
000360 05 ff 02 3f b0 0f 6d bd b7 b0 91 3e 55 0f 11 3f
       0.5117038 -0.05787629 0.28455135 0.5666402
000370 b6 f3 1d 3d 74 df 49 bd 53 a7 e1 3d 38 35 1a 3e
       0.0385625 -0.049285367 0.11018243 0.15059364
000380 ae 71 d2 3e c9 1c d8 3e 1c 14 83 3d d9 f2 f2 bd
       0.41102356 0.4220946 0.0640032 -0.11862726
000390 50 25 7e 3d fb 04 a4 3e 89 c5 aa 3c 27 42 28 bd
       0.062047303 0.3203505 0.020846145 -0.041078713
0003a0 1e 0b 54 3e 80 94 0f 3f b8 58 13 3f 16 74 4d 3e
       0.20707366 0.5608597 0.5755725 0.20063815
0003b0 01 da f7 bd 4c cc a2 3e 56 5a 25 3f eb e4 88 bc
       -0.12102128 0.3179649 0.64590967 -0.01671072
0003c0 54 84 f2 3e 78 37 ea 3e 4e d3 96 3e 48 8e 21 3e
       0.47366583 0.45745444 0.29458088 0.15776932
0003d0 78 2f 34 3d f5 e4 dc 3b 97 ef 0f 3f c8 c4 37 be
       0.043990582 0.006741161 0.5622496 -0.1794616
0003e0 7a 81 5f be d1 f2 35 3e f7 02 37 bd 52 ea cb 3e
       -0.21826735 0.17768408 -0.044680562 0.3982721
0003f0 ef d9 54 3f 82 6a 7c 3e b8 c6 df 3e 7c 4f 65 3e
       0.8314504 0.24650005 0.43706298 0.22393602
